==============================================================================================================
                                                     Kernel Shape        Output Shape     Params     Mult-Adds
Layer                                                                                                         
0_backbone.patch_embed1.Conv2d_proj                 [3, 64, 7, 7]   [1, 64, 128, 128]     9.472k   154.140672M
1_backbone.patch_embed1.LayerNorm_norm                       [64]      [1, 16384, 64]      128.0          64.0
2_backbone.block1.0.LayerNorm_norm1                          [64]      [1, 16384, 64]      128.0          64.0
3_backbone.block1.0.attn.Linear_q                        [64, 64]      [1, 16384, 64]      4.16k        4.096k
4_backbone.block1.0.attn.Conv2d_sr                 [64, 64, 8, 8]     [1, 64, 16, 16]   262.208k    67.108864M
5_backbone.block1.0.attn.LayerNorm_norm                      [64]        [1, 256, 64]      128.0          64.0
6_backbone.block1.0.attn.Linear_kv                      [64, 128]       [1, 256, 128]      8.32k        8.192k
7_backbone.block1.0.attn.Dropout_attn_drop                      -  [1, 1, 16384, 256]          -             -
8_backbone.block1.0.attn.Linear_proj                     [64, 64]      [1, 16384, 64]      4.16k        4.096k
9_backbone.block1.0.attn.Dropout_proj_drop                      -      [1, 16384, 64]          -             -
10_backbone.block1.0.Identity_drop_path                         -      [1, 16384, 64]          -             -
11_backbone.block1.0.LayerNorm_norm2                         [64]      [1, 16384, 64]      128.0          64.0
12_backbone.block1.0.mlp.Linear_fc1                     [64, 256]     [1, 16384, 256]     16.64k       16.384k
13_backbone.block1.0.mlp.dwconv.Conv2d_dwconv      [1, 256, 3, 3]  [1, 256, 128, 128]      2.56k    37.748736M
14_backbone.block1.0.mlp.GELU_act                               -     [1, 16384, 256]          -             -
15_backbone.block1.0.mlp.Dropout_drop                           -     [1, 16384, 256]          -             -
16_backbone.block1.0.mlp.Linear_fc2                     [256, 64]      [1, 16384, 64]    16.448k       16.384k
17_backbone.block1.0.mlp.Dropout_drop                           -      [1, 16384, 64]          -             -
18_backbone.block1.0.Identity_drop_path                         -      [1, 16384, 64]          -             -
19_backbone.block1.1.LayerNorm_norm1                         [64]      [1, 16384, 64]      128.0          64.0
20_backbone.block1.1.attn.Linear_q                       [64, 64]      [1, 16384, 64]      4.16k        4.096k
21_backbone.block1.1.attn.Conv2d_sr                [64, 64, 8, 8]     [1, 64, 16, 16]   262.208k    67.108864M
22_backbone.block1.1.attn.LayerNorm_norm                     [64]        [1, 256, 64]      128.0          64.0
23_backbone.block1.1.attn.Linear_kv                     [64, 128]       [1, 256, 128]      8.32k        8.192k
24_backbone.block1.1.attn.Dropout_attn_drop                     -  [1, 1, 16384, 256]          -             -
25_backbone.block1.1.attn.Linear_proj                    [64, 64]      [1, 16384, 64]      4.16k        4.096k
26_backbone.block1.1.attn.Dropout_proj_drop                     -      [1, 16384, 64]          -             -
27_backbone.block1.1.DropPath_drop_path                         -      [1, 16384, 64]          -             -
28_backbone.block1.1.LayerNorm_norm2                         [64]      [1, 16384, 64]      128.0          64.0
29_backbone.block1.1.mlp.Linear_fc1                     [64, 256]     [1, 16384, 256]     16.64k       16.384k
30_backbone.block1.1.mlp.dwconv.Conv2d_dwconv      [1, 256, 3, 3]  [1, 256, 128, 128]      2.56k    37.748736M
31_backbone.block1.1.mlp.GELU_act                               -     [1, 16384, 256]          -             -
32_backbone.block1.1.mlp.Dropout_drop                           -     [1, 16384, 256]          -             -
33_backbone.block1.1.mlp.Linear_fc2                     [256, 64]      [1, 16384, 64]    16.448k       16.384k
34_backbone.block1.1.mlp.Dropout_drop                           -      [1, 16384, 64]          -             -
35_backbone.block1.1.DropPath_drop_path                         -      [1, 16384, 64]          -             -
36_backbone.LayerNorm_norm1                                  [64]      [1, 16384, 64]      128.0          64.0
37_backbone.patch_embed2.Conv2d_proj              [64, 128, 3, 3]    [1, 128, 64, 64]    73.856k   301.989888M
38_backbone.patch_embed2.LayerNorm_norm                     [128]      [1, 4096, 128]      256.0         128.0
39_backbone.block2.0.LayerNorm_norm1                        [128]      [1, 4096, 128]      256.0         128.0
40_backbone.block2.0.attn.Linear_q                     [128, 128]      [1, 4096, 128]    16.512k       16.384k
41_backbone.block2.0.attn.Conv2d_sr              [128, 128, 4, 4]    [1, 128, 16, 16]   262.272k    67.108864M
42_backbone.block2.0.attn.LayerNorm_norm                    [128]       [1, 256, 128]      256.0         128.0
43_backbone.block2.0.attn.Linear_kv                    [128, 256]       [1, 256, 256]    33.024k       32.768k
44_backbone.block2.0.attn.Dropout_attn_drop                     -   [1, 2, 4096, 256]          -             -
45_backbone.block2.0.attn.Linear_proj                  [128, 128]      [1, 4096, 128]    16.512k       16.384k
46_backbone.block2.0.attn.Dropout_proj_drop                     -      [1, 4096, 128]          -             -
47_backbone.block2.0.DropPath_drop_path                         -      [1, 4096, 128]          -             -
48_backbone.block2.0.LayerNorm_norm2                        [128]      [1, 4096, 128]      256.0         128.0
49_backbone.block2.0.mlp.Linear_fc1                    [128, 512]      [1, 4096, 512]    66.048k       65.536k
50_backbone.block2.0.mlp.dwconv.Conv2d_dwconv      [1, 512, 3, 3]    [1, 512, 64, 64]      5.12k    18.874368M
51_backbone.block2.0.mlp.GELU_act                               -      [1, 4096, 512]          -             -
52_backbone.block2.0.mlp.Dropout_drop                           -      [1, 4096, 512]          -             -
53_backbone.block2.0.mlp.Linear_fc2                    [512, 128]      [1, 4096, 128]    65.664k       65.536k
54_backbone.block2.0.mlp.Dropout_drop                           -      [1, 4096, 128]          -             -
55_backbone.block2.0.DropPath_drop_path                         -      [1, 4096, 128]          -             -
56_backbone.block2.1.LayerNorm_norm1                        [128]      [1, 4096, 128]      256.0         128.0
57_backbone.block2.1.attn.Linear_q                     [128, 128]      [1, 4096, 128]    16.512k       16.384k
58_backbone.block2.1.attn.Conv2d_sr              [128, 128, 4, 4]    [1, 128, 16, 16]   262.272k    67.108864M
59_backbone.block2.1.attn.LayerNorm_norm                    [128]       [1, 256, 128]      256.0         128.0
60_backbone.block2.1.attn.Linear_kv                    [128, 256]       [1, 256, 256]    33.024k       32.768k
61_backbone.block2.1.attn.Dropout_attn_drop                     -   [1, 2, 4096, 256]          -             -
62_backbone.block2.1.attn.Linear_proj                  [128, 128]      [1, 4096, 128]    16.512k       16.384k
63_backbone.block2.1.attn.Dropout_proj_drop                     -      [1, 4096, 128]          -             -
64_backbone.block2.1.DropPath_drop_path                         -      [1, 4096, 128]          -             -
65_backbone.block2.1.LayerNorm_norm2                        [128]      [1, 4096, 128]      256.0         128.0
66_backbone.block2.1.mlp.Linear_fc1                    [128, 512]      [1, 4096, 512]    66.048k       65.536k
67_backbone.block2.1.mlp.dwconv.Conv2d_dwconv      [1, 512, 3, 3]    [1, 512, 64, 64]      5.12k    18.874368M
68_backbone.block2.1.mlp.GELU_act                               -      [1, 4096, 512]          -             -
69_backbone.block2.1.mlp.Dropout_drop                           -      [1, 4096, 512]          -             -
70_backbone.block2.1.mlp.Linear_fc2                    [512, 128]      [1, 4096, 128]    65.664k       65.536k
71_backbone.block2.1.mlp.Dropout_drop                           -      [1, 4096, 128]          -             -
72_backbone.block2.1.DropPath_drop_path                         -      [1, 4096, 128]          -             -
73_backbone.LayerNorm_norm2                                 [128]      [1, 4096, 128]      256.0         128.0
74_backbone.patch_embed3.Conv2d_proj             [128, 320, 3, 3]    [1, 320, 32, 32]    368.96k    377.48736M
75_backbone.patch_embed3.LayerNorm_norm                     [320]      [1, 1024, 320]      640.0         320.0
76_backbone.block3.0.LayerNorm_norm1                        [320]      [1, 1024, 320]      640.0         320.0
77_backbone.block3.0.attn.Linear_q                     [320, 320]      [1, 1024, 320]    102.72k        102.4k
78_backbone.block3.0.attn.Conv2d_sr              [320, 320, 2, 2]    [1, 320, 16, 16]    409.92k     104.8576M
79_backbone.block3.0.attn.LayerNorm_norm                    [320]       [1, 256, 320]      640.0         320.0
80_backbone.block3.0.attn.Linear_kv                    [320, 640]       [1, 256, 640]    205.44k        204.8k
81_backbone.block3.0.attn.Dropout_attn_drop                     -   [1, 5, 1024, 256]          -             -
82_backbone.block3.0.attn.Linear_proj                  [320, 320]      [1, 1024, 320]    102.72k        102.4k
83_backbone.block3.0.attn.Dropout_proj_drop                     -      [1, 1024, 320]          -             -
84_backbone.block3.0.DropPath_drop_path                         -      [1, 1024, 320]          -             -
85_backbone.block3.0.LayerNorm_norm2                        [320]      [1, 1024, 320]      640.0         320.0
86_backbone.block3.0.mlp.Linear_fc1                   [320, 1280]     [1, 1024, 1280]    410.88k        409.6k
87_backbone.block3.0.mlp.dwconv.Conv2d_dwconv     [1, 1280, 3, 3]   [1, 1280, 32, 32]      12.8k     11.79648M
88_backbone.block3.0.mlp.GELU_act                               -     [1, 1024, 1280]          -             -
89_backbone.block3.0.mlp.Dropout_drop                           -     [1, 1024, 1280]          -             -
90_backbone.block3.0.mlp.Linear_fc2                   [1280, 320]      [1, 1024, 320]    409.92k        409.6k
91_backbone.block3.0.mlp.Dropout_drop                           -      [1, 1024, 320]          -             -
92_backbone.block3.0.DropPath_drop_path                         -      [1, 1024, 320]          -             -
93_backbone.block3.1.LayerNorm_norm1                        [320]      [1, 1024, 320]      640.0         320.0
94_backbone.block3.1.attn.Linear_q                     [320, 320]      [1, 1024, 320]    102.72k        102.4k
95_backbone.block3.1.attn.Conv2d_sr              [320, 320, 2, 2]    [1, 320, 16, 16]    409.92k     104.8576M
96_backbone.block3.1.attn.LayerNorm_norm                    [320]       [1, 256, 320]      640.0         320.0
97_backbone.block3.1.attn.Linear_kv                    [320, 640]       [1, 256, 640]    205.44k        204.8k
98_backbone.block3.1.attn.Dropout_attn_drop                     -   [1, 5, 1024, 256]          -             -
99_backbone.block3.1.attn.Linear_proj                  [320, 320]      [1, 1024, 320]    102.72k        102.4k
100_backbone.block3.1.attn.Dropout_proj_drop                    -      [1, 1024, 320]          -             -
101_backbone.block3.1.DropPath_drop_path                        -      [1, 1024, 320]          -             -
102_backbone.block3.1.LayerNorm_norm2                       [320]      [1, 1024, 320]      640.0         320.0
103_backbone.block3.1.mlp.Linear_fc1                  [320, 1280]     [1, 1024, 1280]    410.88k        409.6k
104_backbone.block3.1.mlp.dwconv.Conv2d_dwconv    [1, 1280, 3, 3]   [1, 1280, 32, 32]      12.8k     11.79648M
105_backbone.block3.1.mlp.GELU_act                              -     [1, 1024, 1280]          -             -
106_backbone.block3.1.mlp.Dropout_drop                          -     [1, 1024, 1280]          -             -
107_backbone.block3.1.mlp.Linear_fc2                  [1280, 320]      [1, 1024, 320]    409.92k        409.6k
108_backbone.block3.1.mlp.Dropout_drop                          -      [1, 1024, 320]          -             -
109_backbone.block3.1.DropPath_drop_path                        -      [1, 1024, 320]          -             -
110_backbone.LayerNorm_norm3                                [320]      [1, 1024, 320]      640.0         320.0
111_backbone.patch_embed4.Conv2d_proj            [320, 512, 3, 3]    [1, 512, 16, 16]  1.475072M    377.48736M
112_backbone.patch_embed4.LayerNorm_norm                    [512]       [1, 256, 512]     1.024k         512.0
113_backbone.block4.0.LayerNorm_norm1                       [512]       [1, 256, 512]     1.024k         512.0
114_backbone.block4.0.attn.Linear_q                    [512, 512]       [1, 256, 512]   262.656k      262.144k
115_backbone.block4.0.attn.Linear_kv                  [512, 1024]      [1, 256, 1024]   525.312k      524.288k
116_backbone.block4.0.attn.Dropout_attn_drop                    -    [1, 8, 256, 256]          -             -
117_backbone.block4.0.attn.Linear_proj                 [512, 512]       [1, 256, 512]   262.656k      262.144k
118_backbone.block4.0.attn.Dropout_proj_drop                    -       [1, 256, 512]          -             -
119_backbone.block4.0.DropPath_drop_path                        -       [1, 256, 512]          -             -
120_backbone.block4.0.LayerNorm_norm2                       [512]       [1, 256, 512]     1.024k         512.0
121_backbone.block4.0.mlp.Linear_fc1                  [512, 2048]      [1, 256, 2048]  1.050624M     1.048576M
122_backbone.block4.0.mlp.dwconv.Conv2d_dwconv    [1, 2048, 3, 3]   [1, 2048, 16, 16]     20.48k     4.718592M
123_backbone.block4.0.mlp.GELU_act                              -      [1, 256, 2048]          -             -
124_backbone.block4.0.mlp.Dropout_drop                          -      [1, 256, 2048]          -             -
125_backbone.block4.0.mlp.Linear_fc2                  [2048, 512]       [1, 256, 512]  1.049088M     1.048576M
126_backbone.block4.0.mlp.Dropout_drop                          -       [1, 256, 512]          -             -
127_backbone.block4.0.DropPath_drop_path                        -       [1, 256, 512]          -             -
128_backbone.block4.1.LayerNorm_norm1                       [512]       [1, 256, 512]     1.024k         512.0
129_backbone.block4.1.attn.Linear_q                    [512, 512]       [1, 256, 512]   262.656k      262.144k
130_backbone.block4.1.attn.Linear_kv                  [512, 1024]      [1, 256, 1024]   525.312k      524.288k
131_backbone.block4.1.attn.Dropout_attn_drop                    -    [1, 8, 256, 256]          -             -
132_backbone.block4.1.attn.Linear_proj                 [512, 512]       [1, 256, 512]   262.656k      262.144k
133_backbone.block4.1.attn.Dropout_proj_drop                    -       [1, 256, 512]          -             -
134_backbone.block4.1.DropPath_drop_path                        -       [1, 256, 512]          -             -
135_backbone.block4.1.LayerNorm_norm2                       [512]       [1, 256, 512]     1.024k         512.0
136_backbone.block4.1.mlp.Linear_fc1                  [512, 2048]      [1, 256, 2048]  1.050624M     1.048576M
137_backbone.block4.1.mlp.dwconv.Conv2d_dwconv    [1, 2048, 3, 3]   [1, 2048, 16, 16]     20.48k     4.718592M
138_backbone.block4.1.mlp.GELU_act                              -      [1, 256, 2048]          -             -
139_backbone.block4.1.mlp.Dropout_drop                          -      [1, 256, 2048]          -             -
140_backbone.block4.1.mlp.Linear_fc2                  [2048, 512]       [1, 256, 512]  1.049088M     1.048576M
141_backbone.block4.1.mlp.Dropout_drop                          -       [1, 256, 512]          -             -
142_backbone.block4.1.DropPath_drop_path                        -       [1, 256, 512]          -             -
143_backbone.LayerNorm_norm4                                [512]       [1, 256, 512]     1.024k         512.0
144_decode_head.linear_c4.Linear_proj                  [512, 256]       [1, 256, 256]   131.328k      131.072k
145_decode_head.linear_c3.Linear_proj                  [320, 256]      [1, 1024, 256]    82.176k        81.92k
146_decode_head.linear_c2.Linear_proj                  [128, 256]      [1, 4096, 256]    33.024k       32.768k
147_decode_head.linear_c1.Linear_proj                   [64, 256]     [1, 16384, 256]     16.64k       16.384k
148_decode_head.linear_fuse.Conv2d_conv         [1024, 256, 1, 1]  [1, 256, 128, 128]   262.144k  4.294967296G
149_decode_head.linear_fuse.SyncBatchNorm_bn                [256]  [1, 256, 128, 128]      512.0         256.0
150_decode_head.linear_fuse.ReLU_activate                       -  [1, 256, 128, 128]          -             -
151_decode_head.Dropout2d_dropout                               -  [1, 256, 128, 128]          -             -
152_decode_head.Conv2d_linear_pred               [256, 150, 1, 1]  [1, 150, 128, 128]     38.55k     629.1456M
--------------------------------------------------------------------------------------------------------------
                            Totals
Total params            13.715798M
Trainable params        13.715798M
Non-trainable params           0.0
Mult-Adds             6.769155328G
==============================================================================================================
…
