…
tensor([1564672.], dtype=torch.float64)
tensor([977920.], dtype=torch.float64)
tensor([977920.], dtype=torch.float64)
tensor([391168.], dtype=torch.float64)
tensor([391168.], dtype=torch.float64)
14.211G
==============================================================================================================
                                                     Kernel Shape        Output Shape     Params     Mult-Adds
Layer                                                                                                         
0_backbone.patch_embed1.Conv2d_proj                 [3, 64, 7, 7]   [1, 64, 128, 128]     9.472k   154.140672M
1_backbone.patch_embed1.LayerNorm_norm                       [64]      [1, 16384, 64]      128.0          64.0
2_backbone.block1.0.LayerNorm_norm1                          [64]       [256, 64, 64]      128.0          64.0
3_backbone.block1.0.attn.Linear_q                        [64, 64]       [256, 64, 64]      4.16k        4.096k
4_backbone.block1.0.attn.Linear_kv                      [64, 128]      [256, 64, 128]      8.32k        8.192k
5_backbone.block1.0.attn.Softmax_softmax                        -    [256, 1, 64, 64]          -             -
6_backbone.block1.0.attn.Dropout_attn_drop                      -    [256, 1, 64, 64]          -             -
7_backbone.block1.0.attn.Linear_proj                     [64, 64]       [256, 64, 64]      4.16k        4.096k
8_backbone.block1.0.attn.Dropout_proj_drop                      -       [256, 64, 64]          -             -
9_backbone.block1.0.Identity_drop_path                          -       [256, 64, 64]          -             -
10_backbone.block1.0.LayerNorm_norm2                         [64]      [1, 16384, 64]      128.0          64.0
11_backbone.block1.0.mlp.Linear_fc1                     [64, 256]     [1, 16384, 256]     16.64k       16.384k
12_backbone.block1.0.mlp.dwconv.Conv2d_dwconv      [1, 256, 3, 3]  [1, 256, 128, 128]      2.56k    37.748736M
13_backbone.block1.0.mlp.GELU_act                               -     [1, 16384, 256]          -             -
14_backbone.block1.0.mlp.Dropout_drop                           -     [1, 16384, 256]          -             -
15_backbone.block1.0.mlp.Linear_fc2                     [256, 64]      [1, 16384, 64]    16.448k       16.384k
16_backbone.block1.0.mlp.Dropout_drop                           -      [1, 16384, 64]          -             -
17_backbone.block1.0.Identity_drop_path                         -      [1, 16384, 64]          -             -
18_backbone.block1.1.LayerNorm_norm1                         [64]       [256, 64, 64]      128.0          64.0
19_backbone.block1.1.attn.Linear_q                       [64, 64]       [256, 64, 64]      4.16k        4.096k
20_backbone.block1.1.attn.Linear_kv                     [64, 128]      [256, 64, 128]      8.32k        8.192k
21_backbone.block1.1.attn.Softmax_softmax                       -    [256, 1, 64, 64]          -             -
22_backbone.block1.1.attn.Dropout_attn_drop                     -    [256, 1, 64, 64]          -             -
23_backbone.block1.1.attn.Linear_proj                    [64, 64]       [256, 64, 64]      4.16k        4.096k
24_backbone.block1.1.attn.Dropout_proj_drop                     -       [256, 64, 64]          -             -
25_backbone.block1.1.DropPath_drop_path                         -       [256, 64, 64]          -             -
26_backbone.block1.1.LayerNorm_norm2                         [64]      [1, 16384, 64]      128.0          64.0
27_backbone.block1.1.mlp.Linear_fc1                     [64, 256]     [1, 16384, 256]     16.64k       16.384k
28_backbone.block1.1.mlp.dwconv.Conv2d_dwconv      [1, 256, 3, 3]  [1, 256, 128, 128]      2.56k    37.748736M
29_backbone.block1.1.mlp.GELU_act                               -     [1, 16384, 256]          -             -
30_backbone.block1.1.mlp.Dropout_drop                           -     [1, 16384, 256]          -             -
31_backbone.block1.1.mlp.Linear_fc2                     [256, 64]      [1, 16384, 64]    16.448k       16.384k
32_backbone.block1.1.mlp.Dropout_drop                           -      [1, 16384, 64]          -             -
33_backbone.block1.1.DropPath_drop_path                         -      [1, 16384, 64]          -             -
34_backbone.LayerNorm_norm1                                  [64]      [1, 16384, 64]      128.0          64.0
35_backbone.patch_embed2.Conv2d_proj              [64, 128, 3, 3]    [1, 128, 64, 64]    73.856k   301.989888M
36_backbone.patch_embed2.LayerNorm_norm                     [128]      [1, 4096, 128]      256.0         128.0
37_backbone.block2.0.LayerNorm_norm1                        [128]       [64, 64, 128]      256.0         128.0
38_backbone.block2.0.attn.Linear_q                     [128, 128]       [64, 64, 128]    16.512k       16.384k
39_backbone.block2.0.attn.Linear_kv                    [128, 256]       [64, 64, 256]    33.024k       32.768k
40_backbone.block2.0.attn.Softmax_softmax                       -     [64, 2, 64, 64]          -             -
41_backbone.block2.0.attn.Dropout_attn_drop                     -     [64, 2, 64, 64]          -             -
42_backbone.block2.0.attn.Linear_proj                  [128, 128]       [64, 64, 128]    16.512k       16.384k
43_backbone.block2.0.attn.Dropout_proj_drop                     -       [64, 64, 128]          -             -
44_backbone.block2.0.DropPath_drop_path                         -       [64, 64, 128]          -             -
45_backbone.block2.0.LayerNorm_norm2                        [128]      [1, 4096, 128]      256.0         128.0
46_backbone.block2.0.mlp.Linear_fc1                    [128, 512]      [1, 4096, 512]    66.048k       65.536k
47_backbone.block2.0.mlp.dwconv.Conv2d_dwconv      [1, 512, 3, 3]    [1, 512, 64, 64]      5.12k    18.874368M
48_backbone.block2.0.mlp.GELU_act                               -      [1, 4096, 512]          -             -
49_backbone.block2.0.mlp.Dropout_drop                           -      [1, 4096, 512]          -             -
50_backbone.block2.0.mlp.Linear_fc2                    [512, 128]      [1, 4096, 128]    65.664k       65.536k
51_backbone.block2.0.mlp.Dropout_drop                           -      [1, 4096, 128]          -             -
52_backbone.block2.0.DropPath_drop_path                         -      [1, 4096, 128]          -             -
53_backbone.block2.1.LayerNorm_norm1                        [128]       [64, 64, 128]      256.0         128.0
54_backbone.block2.1.attn.Linear_q                     [128, 128]       [64, 64, 128]    16.512k       16.384k
55_backbone.block2.1.attn.Linear_kv                    [128, 256]       [64, 64, 256]    33.024k       32.768k
56_backbone.block2.1.attn.Softmax_softmax                       -     [64, 2, 64, 64]          -             -
57_backbone.block2.1.attn.Dropout_attn_drop                     -     [64, 2, 64, 64]          -             -
58_backbone.block2.1.attn.Linear_proj                  [128, 128]       [64, 64, 128]    16.512k       16.384k
59_backbone.block2.1.attn.Dropout_proj_drop                     -       [64, 64, 128]          -             -
60_backbone.block2.1.DropPath_drop_path                         -       [64, 64, 128]          -             -
61_backbone.block2.1.LayerNorm_norm2                        [128]      [1, 4096, 128]      256.0         128.0
62_backbone.block2.1.mlp.Linear_fc1                    [128, 512]      [1, 4096, 512]    66.048k       65.536k
63_backbone.block2.1.mlp.dwconv.Conv2d_dwconv      [1, 512, 3, 3]    [1, 512, 64, 64]      5.12k    18.874368M
64_backbone.block2.1.mlp.GELU_act                               -      [1, 4096, 512]          -             -
65_backbone.block2.1.mlp.Dropout_drop                           -      [1, 4096, 512]          -             -
66_backbone.block2.1.mlp.Linear_fc2                    [512, 128]      [1, 4096, 128]    65.664k       65.536k
67_backbone.block2.1.mlp.Dropout_drop                           -      [1, 4096, 128]          -             -
68_backbone.block2.1.DropPath_drop_path                         -      [1, 4096, 128]          -             -
69_backbone.LayerNorm_norm2                                 [128]      [1, 4096, 128]      256.0         128.0
70_backbone.patch_embed3.Conv2d_proj             [128, 320, 3, 3]    [1, 320, 32, 32]    368.96k    377.48736M
71_backbone.patch_embed3.LayerNorm_norm                     [320]      [1, 1024, 320]      640.0         320.0
72_backbone.block3.0.LayerNorm_norm1                        [320]       [16, 64, 320]      640.0         320.0
73_backbone.block3.0.attn.Linear_q                     [320, 320]       [16, 64, 320]    102.72k        102.4k
74_backbone.block3.0.attn.Linear_kv                    [320, 640]       [16, 64, 640]    205.44k        204.8k
75_backbone.block3.0.attn.Softmax_softmax                       -     [16, 5, 64, 64]          -             -
76_backbone.block3.0.attn.Dropout_attn_drop                     -     [16, 5, 64, 64]          -             -
77_backbone.block3.0.attn.Linear_proj                  [320, 320]       [16, 64, 320]    102.72k        102.4k
78_backbone.block3.0.attn.Dropout_proj_drop                     -       [16, 64, 320]          -             -
79_backbone.block3.0.DropPath_drop_path                         -       [16, 64, 320]          -             -
80_backbone.block3.0.LayerNorm_norm2                        [320]      [1, 1024, 320]      640.0         320.0
81_backbone.block3.0.mlp.Linear_fc1                   [320, 1280]     [1, 1024, 1280]    410.88k        409.6k
82_backbone.block3.0.mlp.dwconv.Conv2d_dwconv     [1, 1280, 3, 3]   [1, 1280, 32, 32]      12.8k     11.79648M
83_backbone.block3.0.mlp.GELU_act                               -     [1, 1024, 1280]          -             -
84_backbone.block3.0.mlp.Dropout_drop                           -     [1, 1024, 1280]          -             -
85_backbone.block3.0.mlp.Linear_fc2                   [1280, 320]      [1, 1024, 320]    409.92k        409.6k
86_backbone.block3.0.mlp.Dropout_drop                           -      [1, 1024, 320]          -             -
87_backbone.block3.0.DropPath_drop_path                         -      [1, 1024, 320]          -             -
88_backbone.block3.1.LayerNorm_norm1                        [320]       [16, 64, 320]      640.0         320.0
89_backbone.block3.1.attn.Linear_q                     [320, 320]       [16, 64, 320]    102.72k        102.4k
90_backbone.block3.1.attn.Linear_kv                    [320, 640]       [16, 64, 640]    205.44k        204.8k
91_backbone.block3.1.attn.Softmax_softmax                       -     [16, 5, 64, 64]          -             -
92_backbone.block3.1.attn.Dropout_attn_drop                     -     [16, 5, 64, 64]          -             -
93_backbone.block3.1.attn.Linear_proj                  [320, 320]       [16, 64, 320]    102.72k        102.4k
94_backbone.block3.1.attn.Dropout_proj_drop                     -       [16, 64, 320]          -             -
95_backbone.block3.1.DropPath_drop_path                         -       [16, 64, 320]          -             -
96_backbone.block3.1.LayerNorm_norm2                        [320]      [1, 1024, 320]      640.0         320.0
97_backbone.block3.1.mlp.Linear_fc1                   [320, 1280]     [1, 1024, 1280]    410.88k        409.6k
98_backbone.block3.1.mlp.dwconv.Conv2d_dwconv     [1, 1280, 3, 3]   [1, 1280, 32, 32]      12.8k     11.79648M
99_backbone.block3.1.mlp.GELU_act                               -     [1, 1024, 1280]          -             -
100_backbone.block3.1.mlp.Dropout_drop                          -     [1, 1024, 1280]          -             -
101_backbone.block3.1.mlp.Linear_fc2                  [1280, 320]      [1, 1024, 320]    409.92k        409.6k
102_backbone.block3.1.mlp.Dropout_drop                          -      [1, 1024, 320]          -             -
103_backbone.block3.1.DropPath_drop_path                        -      [1, 1024, 320]          -             -
104_backbone.LayerNorm_norm3                                [320]      [1, 1024, 320]      640.0         320.0
105_backbone.patch_embed4.Conv2d_proj            [320, 512, 3, 3]    [1, 512, 16, 16]  1.475072M    377.48736M
106_backbone.patch_embed4.LayerNorm_norm                    [512]       [1, 256, 512]     1.024k         512.0
107_backbone.block4.0.LayerNorm_norm1                       [512]        [4, 64, 512]     1.024k         512.0
108_backbone.block4.0.attn.Linear_q                    [512, 512]        [4, 64, 512]   262.656k      262.144k
109_backbone.block4.0.attn.Linear_kv                  [512, 1024]       [4, 64, 1024]   525.312k      524.288k
110_backbone.block4.0.attn.Softmax_softmax                      -      [4, 8, 64, 64]          -             -
111_backbone.block4.0.attn.Dropout_attn_drop                    -      [4, 8, 64, 64]          -             -
112_backbone.block4.0.attn.Linear_proj                 [512, 512]        [4, 64, 512]   262.656k      262.144k
113_backbone.block4.0.attn.Dropout_proj_drop                    -        [4, 64, 512]          -             -
114_backbone.block4.0.DropPath_drop_path                        -        [4, 64, 512]          -             -
115_backbone.block4.0.LayerNorm_norm2                       [512]       [1, 256, 512]     1.024k         512.0
116_backbone.block4.0.mlp.Linear_fc1                  [512, 2048]      [1, 256, 2048]  1.050624M     1.048576M
117_backbone.block4.0.mlp.dwconv.Conv2d_dwconv    [1, 2048, 3, 3]   [1, 2048, 16, 16]     20.48k     4.718592M
118_backbone.block4.0.mlp.GELU_act                              -      [1, 256, 2048]          -             -
119_backbone.block4.0.mlp.Dropout_drop                          -      [1, 256, 2048]          -             -
120_backbone.block4.0.mlp.Linear_fc2                  [2048, 512]       [1, 256, 512]  1.049088M     1.048576M
121_backbone.block4.0.mlp.Dropout_drop                          -       [1, 256, 512]          -             -
122_backbone.block4.0.DropPath_drop_path                        -       [1, 256, 512]          -             -
123_backbone.block4.1.LayerNorm_norm1                       [512]        [4, 64, 512]     1.024k         512.0
124_backbone.block4.1.attn.Linear_q                    [512, 512]        [4, 64, 512]   262.656k      262.144k
125_backbone.block4.1.attn.Linear_kv                  [512, 1024]       [4, 64, 1024]   525.312k      524.288k
126_backbone.block4.1.attn.Softmax_softmax                      -      [4, 8, 64, 64]          -             -
127_backbone.block4.1.attn.Dropout_attn_drop                    -      [4, 8, 64, 64]          -             -
128_backbone.block4.1.attn.Linear_proj                 [512, 512]        [4, 64, 512]   262.656k      262.144k
129_backbone.block4.1.attn.Dropout_proj_drop                    -        [4, 64, 512]          -             -
130_backbone.block4.1.DropPath_drop_path                        -        [4, 64, 512]          -             -
131_backbone.block4.1.LayerNorm_norm2                       [512]       [1, 256, 512]     1.024k         512.0
132_backbone.block4.1.mlp.Linear_fc1                  [512, 2048]      [1, 256, 2048]  1.050624M     1.048576M
133_backbone.block4.1.mlp.dwconv.Conv2d_dwconv    [1, 2048, 3, 3]   [1, 2048, 16, 16]     20.48k     4.718592M
134_backbone.block4.1.mlp.GELU_act                              -      [1, 256, 2048]          -             -
135_backbone.block4.1.mlp.Dropout_drop                          -      [1, 256, 2048]          -             -
136_backbone.block4.1.mlp.Linear_fc2                  [2048, 512]       [1, 256, 512]  1.049088M     1.048576M
137_backbone.block4.1.mlp.Dropout_drop                          -       [1, 256, 512]          -             -
138_backbone.block4.1.DropPath_drop_path                        -       [1, 256, 512]          -             -
139_backbone.LayerNorm_norm4                                [512]       [1, 256, 512]     1.024k         512.0
140_decode_head.linear_c4.Linear_proj                  [512, 256]       [1, 256, 256]   131.328k      131.072k
141_decode_head.linear_c3.Linear_proj                  [320, 256]      [1, 1024, 256]    82.176k        81.92k
142_decode_head.linear_c2.Linear_proj                  [128, 256]      [1, 4096, 256]    33.024k       32.768k
143_decode_head.linear_c1.Linear_proj                   [64, 256]     [1, 16384, 256]     16.64k       16.384k
144_decode_head.linear_fuse.Conv2d_conv         [1024, 256, 1, 1]  [1, 256, 128, 128]   262.144k  4.294967296G
145_decode_head.linear_fuse.SyncBatchNorm_bn                [256]  [1, 256, 128, 128]      512.0         256.0
146_decode_head.linear_fuse.ReLU_activate                       -  [1, 256, 128, 128]          -             -
147_decode_head.Dropout2d_dropout                               -  [1, 256, 128, 128]          -             -
148_decode_head.Conv2d_linear_pred               [256, 150, 1, 1]  [1, 150, 128, 128]     38.55k     629.1456M
--------------------------------------------------------------------------------------------------------------
                            Totals
Total params             11.84495M
Trainable params         11.84495M
Non-trainable params           0.0
Mult-Adds             6.291003648G
==============================================================================================================
…
